…
{'data_path': './data/cifar.python', 'dataset': 'cifar10', 'arch': 'simplenet', 'epochs': 540, 'batch_size': 256, 'learning_rate': 0.1, 'momentum': 0.9996356233093349, 'decay': 0.002, 'print_freq': 200, 'save_path': './snapshots/simplenet', 'resume': '', 'start_epoch': 0, 'evaluate': False, 'ngpu': 1, 'workers': 2, 'manualSeed': 3808, 'use_cuda': False, 'aiteration': 0, 'drp': 0.0433791870965478, 'eps': 0.00020564561588931198, 'eps_arch': 7.385836311161544e-05, 'lr': 0.0002542965636809901, 'momentum_arch': 0.0024516057712447334, 'weight_decay': 6.594844412524293e-08}
Random Seed: 3808
python version : 3.7.7 (default, May  7 2020, 21:25:33)  [GCC 7.3.0]
torch  version : 1.6.0+cpu
cudnn  version : None
=> creating model 'simplenet'
=> network :
 simplenet(
  (features): Sequential(
    (0): Conv2d(3, 64, kernel_size=[3, 3], stride=(1, 1), padding=(1, 1))
    (1): BatchNorm2d(64, eps=7.385836311161544e-05, momentum=0.0024516057712447334, affine=True, track_running_stats=True)
    (2): ReLU(inplace=True)
    (3): Conv2d(64, 128, kernel_size=[3, 3], stride=(1, 1), padding=(1, 1))
    (4): BatchNorm2d(128, eps=7.385836311161544e-05, momentum=0.0024516057712447334, affine=True, track_running_stats=True)
    (5): ReLU(inplace=True)
    (6): Conv2d(128, 128, kernel_size=[3, 3], stride=(1, 1), padding=(1, 1))
    (7): BatchNorm2d(128, eps=7.385836311161544e-05, momentum=0.0024516057712447334, affine=True, track_running_stats=True)
    (8): ReLU(inplace=True)
    (9): Conv2d(128, 128, kernel_size=[3, 3], stride=(1, 1), padding=(1, 1))
    (10): BatchNorm2d(128, eps=7.385836311161544e-05, momentum=0.0024516057712447334, affine=True, track_running_stats=True)
    (11): ReLU(inplace=True)
    (12): MaxPool2d(kernel_size=(2, 2), stride=(2, 2), padding=0, dilation=(1, 1), ceil_mode=False)
    (13): Dropout2d(p=0.0433791870965478, inplace=False)
    (14): Conv2d(128, 128, kernel_size=[3, 3], stride=(1, 1), padding=(1, 1))
    (15): BatchNorm2d(128, eps=7.385836311161544e-05, momentum=0.0024516057712447334, affine=True, track_running_stats=True)
    (16): ReLU(inplace=True)
    (17): Conv2d(128, 128, kernel_size=[3, 3], stride=(1, 1), padding=(1, 1))
    (18): BatchNorm2d(128, eps=7.385836311161544e-05, momentum=0.0024516057712447334, affine=True, track_running_stats=True)
    (19): ReLU(inplace=True)
    (20): Conv2d(128, 256, kernel_size=[3, 3], stride=(1, 1), padding=(1, 1))
    (21): BatchNorm2d(256, eps=7.385836311161544e-05, momentum=0.0024516057712447334, affine=True, track_running_stats=True)
    (22): ReLU(inplace=True)
    (23): MaxPool2d(kernel_size=(2, 2), stride=(2, 2), padding=0, dilation=(1, 1), ceil_mode=False)
    (24): Dropout2d(p=0.0433791870965478, inplace=False)
    (25): Conv2d(256, 256, kernel_size=[3, 3], stride=(1, 1), padding=(1, 1))
    (26): BatchNorm2d(256, eps=7.385836311161544e-05, momentum=0.0024516057712447334, affine=True, track_running_stats=True)
    (27): ReLU(inplace=True)
    (28): Conv2d(256, 256, kernel_size=[3, 3], stride=(1, 1), padding=(1, 1))
    (29): BatchNorm2d(256, eps=7.385836311161544e-05, momentum=0.0024516057712447334, affine=True, track_running_stats=True)
    (30): ReLU(inplace=True)
    (31): MaxPool2d(kernel_size=(2, 2), stride=(2, 2), padding=0, dilation=(1, 1), ceil_mode=False)
    (32): Dropout2d(p=0.0433791870965478, inplace=False)
    (33): Conv2d(256, 512, kernel_size=[3, 3], stride=(1, 1), padding=(1, 1))
    (34): BatchNorm2d(512, eps=7.385836311161544e-05, momentum=0.0024516057712447334, affine=True, track_running_stats=True)
    (35): ReLU(inplace=True)
    (36): MaxPool2d(kernel_size=(2, 2), stride=(2, 2), padding=0, dilation=(1, 1), ceil_mode=False)
    (37): Dropout2d(p=0.0433791870965478, inplace=False)
    (38): Conv2d(512, 2048, kernel_size=[1, 1], stride=(1, 1))
    (39): BatchNorm2d(2048, eps=7.385836311161544e-05, momentum=0.0024516057712447334, affine=True, track_running_stats=True)
    (40): ReLU(inplace=True)
    (41): Conv2d(2048, 256, kernel_size=[1, 1], stride=(1, 1))
    (42): BatchNorm2d(256, eps=7.385836311161544e-05, momentum=0.0024516057712447334, affine=True, track_running_stats=True)
    (43): ReLU(inplace=True)
    (44): MaxPool2d(kernel_size=(2, 2), stride=(2, 2), padding=0, dilation=(1, 1), ceil_mode=False)
    (45): Dropout2d(p=0.0433791870965478, inplace=False)
    (46): Conv2d(256, 256, kernel_size=[3, 3], stride=(1, 1), padding=(1, 1))
    (47): BatchNorm2d(256, eps=7.385836311161544e-05, momentum=0.0024516057712447334, affine=True, track_running_stats=True)
    (48): ReLU(inplace=True)
  )
  (classifier): Linear(in_features=256, out_features=10, bias=True)
  (drp): Dropout(p=0.0433791870965478, inplace=False)
)
=> Seed '3808'
=> dataset mean and std '[0.4913725490196078, 0.4823529411764706, 0.4466666666666667] - [0.24705882352941178, 0.24352941176470588, 0.2615686274509804]'
=> optimizer '{'optimizer': {'state': {}, 'param_groups': [{'lr': 0.0002542965636809901, 'rho': 0.9996356233093349, 'eps': 0.00020564561588931198, 'weight_decay': 6.594844412524293e-08, 'params': [0, 1, 2, 3, 4, 5, 6, 7, 8, 9, 10, 11, 12, 13, 14, 15, 16, 17, 18, 19, 20, 21, 22, 23, 24, 25, 26, 27, 28, 29, 30, 31, 32, 33, 34, 35, 36, 37, 38, 39, 40, 41, 42, 43, 44, 45, 46, 47, 48, 49, 50, 51, 52, 53]}]}}'
…
